src/cartpole/dqn2/res/policy_net.pt (torch_old, 4117 bytes, 6 tensors)

fc1.weight f4 [24, 4]
00000000: f7fa 0c3f 6f0a d8be 1004 b8be 0632 14bf
00000010: 5221 133e d1fe df3d 2235 6abe 9e67 c3be
00000020: dd81 303f 7892 f83e 5483 80be 7297 6e3d
00000030: d416 1a3f b741 98be 46dc 033f 79d0 2abe
00000040: 9b6e f5be dbff 23be ebcf babe 9dfd 24be
00000050: 983a 5bbf 8bb5 48bd c820 443f e4c6 e93e
00000060: dbed d2be 352d 42bd 2f89 c93f 1f39 cb3e
00000070: 9e4f f63e ec8d acbe ebce 01bf 44b3 94be
00000080: b976 183e 32d4 66bf 282f 65bd 1c29 da3e
00000090: 29c5 213d c970 7a3e 19cd 903f c5bf ca3e
000000a0: b37d e53e 7019 7abe 6b18 cdbf 6621 08bf
000000b0: 6dd4 183b 6be4 983f 49fd 7b3f 2036 fc3e
000000c0: d452 abbe 412b 553c 930c 803e 94a7 2cbd
000000d0: a13b 3e3f 22ba 8d3e 415e b23f a17d 373f
000000e0: 59dc ebbe 15bd 8b3e 51ca 853f dd5d 9e3d
000000f0: 9983 b73e 6071 b6be fa6f 06c0 1e65 3fbf
00000100: 85e6 d9bd 5d99 f43d 4295 f9bf 1c98 1bbf
00000110: b5cf 373e 5796 bfbe ef36 7cbe 5d26 4cbe
00000120: 435b aa3e 557c e4be 99fc 0fc0 e73a 39bf
00000130: 8b6f 75bd 0263 aebe c915 6c3d b6c4 11bc
00000140: feeb c53f 9f3a 6ebe a4c9 b5be 2a46 b2be
00000150: 6a1c 173f a5e8 9ebe 034b b5bf 8f0b 1bbf
00000160: ad6f ec3e 880b 29be 89c7 fd3d 7b8b 8a3e
00000170: 641d 57bc 2553 80bd 751f 13c0 a735 f4be
0.5507044 -0.4219546 -0.359406 -0.5788883 0.1436818 0.10937274 -0.22871831 -0.3816499
0.68948156 0.48549247 -0.25100195 0.0582499 0.6019108 -0.29737636 0.51507986 -0.16681089
-0.47935948 -0.1601557 -0.36486754 -0.16112371 -0.8563628 -0.049001258 0.7661252 0.45659554
-0.41197094 -0.047406394 1.574499 0.39692017 0.48107618 -0.33702028 -0.50706357 -0.2904302
0.14889039 -0.90167534 -0.055953175 0.4260949 0.039494667 0.24457087 1.1312591 0.39599434
0.44822463 -0.24423766 -1.6023077 -0.5317596 0.0023319975 1.1944708 0.9843336 0.49260044
-0.3346163 0.013010801 0.25009593 -0.042152002 0.74309736 0.2768107 1.3935014 0.7167607
-0.4606655 0.27292696 1.0452367 0.07732747 0.3584259 -0.35633373 -2.1005845 -0.7476367
-0.10639671 0.11943314 -1.9498675 -0.60778975 0.17950328 -0.37419388 -0.2463033 -0.1993651
0.33272752 -0.44626108 -2.2497923 -0.723555 -0.05992083 -0.34059912 0.057637963 -0.008896997
1.5462644 -0.2326455 -0.35505402 -0.34819156 0.5902773 -0.3103687 -1.4163517 -0.6056451
0.46178952 -0.16508305 0.12391574 0.2705954 -0.013129566 -0.062658586 -2.298795 -0.47697183

fc1.bias f4 [24]
00000000: 3fce 883f c5a5 3c3f 78f4 42bf b3d9 96be
00000010: 3a57 3dbf d136 12be 431b c5be 7103 253f
00000020: 56c7 bc3d 2341 7d3f d06d 453f 73ea 593e
00000030: 9ce0 673f 9c78 4abe f6bc 543f 3b35 e33e
00000040: 1407 dfbd 99e6 7b3f 202a ffbe 75d3 6f3f
00000050: 324a d0bd 29a8 7b3f c8ee 553f 36ba c4be
1.0687941 0.73690444 -0.7615428 -0.29462966 -0.7396122 -0.14278723 -0.38497362 0.64458376
0.09217708 0.98927516 0.77120686 0.21280842 0.905771 -0.19772571 0.8310083 0.4437655
-0.10890022 0.9839874 -0.49836826 0.9368203 -0.10170402 0.9830347 0.83567476 -0.38423318

fc2.weight f4 [24, 24]
00000000: 6f91 46bd 4994 f3bb 82ca 9abd 2a6a 3cbe
00000010: afe8 a3bd f5da 793c c8c9 5fbd b4fc 07be
00000020: c84c b63c ad23 a0bd 989a fabc f468 a53d
00000030: ae64 b0bd 88a0 403d 61ce 3d3c 0160 e73d
00000040: 4e5f b0bd ab47 0f3e 8255 333d a34a 1d3d
00000050: d4aa 3dbe d5ea 6dbe 6b93 bdbd 145a 84bd
00000060: 3ded f63e 29eb ee3e 0619 f03f caac 4c3e
00000070: f5b8 c3be 4c21 df3d 1477 293e fba8 f43e
00000080: b9ad b93e f28b 453f d51a e03d 0c76 4d3e
00000090: db4c ea3e 5dc8 4fbf d022 d13e 2101 b4be
000000a0: 9c20 9dbe deca 163f 4d06 54bf e334 ee3e
000000b0: c5e6 89bf 9166 1d3f e5c5 283f 4dde 34bf
000000c0: 2a3a 23be 66e0 8e3d c8d5 573d 1670 03be
000000d0: d069 483c 9438 48be 1024 873c 4a9b 023e
000000e0: f026 4d3d 9c57 15be ad59 34be 76c4 97bb
000000f0: 93aa e7bd 9ca7 243d 7f41 9cbd 8524 14be
00000100: 8c31 293e 19ae 4ebe 18ba fe3d 4be9 b5bd
00000110: a4ba 913d b09b 9a3c ed4c b0bd 7282 233e
00000120: 7db1 123f e0b3 073f f6bc ab3f ef3b 3b3e
00000130: 35ec c5be 7d7b 043b 9085 a83d d639 b63e
00000140: 4d34 7a3e 49a4 463f 1177 cf3e 61e3 e33e
00000150: 8cab 053f b19d 1ebf 686d a53e e13a 5ebe
00000160: 018a 9bbc 8ed0 173f a02f 56bf 89bc f13e
00000170: 08a5 7dbf 0335 063f 4545 b83e b8ec 34bf
00000180: 7b20 5cbf 6ad1 36be f4b9 4abf 966e 883e
00000190: f03f 2d3f 301b c53e b1a7 8e3e e8f3 90bf
000001a0: bbe0 823e c857 323f 5260 05c0 8975 473f
000001b0: 94e1 b43e 78ab 6c3f 02e9 4f3f ad91 ef3c
000001c0: d3d4 af3e 7f29 81be 3a92 10bf 0360 02bc
000001d0: 5815 1cbf 1d16 16c0 038e 933d f6d3 9f3e
000001e0: ea70 823d 218e 44bd e1cf 063e da69 dabe
000001f0: 7997 983f 45c3 0cbd fb7e be3c d0ba 6cbc
00000200: ebde 5b3f 0108 bebf 3a52 cf3c 4fa5 15bf
00000210: da80 73bd ce2a 3bbe 6322 ddbe 6492 a43e
00000220: e60b 083f e45c 28bd 541d 8e3f 2c7d bbbe
00000230: fd21 86be 23de ca3c a944 adbe c79d 463f
00000240: 3829 d03e 4cbf d63e 2a3f bf3f 1985 c03d
00000250: f8b1 e0be 343e 9abe c8be 16be 1f8c c93e
00000260: 815b 9d3e 2318 123f 2e82 ba3d 307f 263e
00000270: 05b2 ef3e 67c6 0dbf 8788 353f c6da 0bbf
00000280: 86d0 42be 9855 ed3e 8e36 36bf 5736 ea3e
00000290: 9999 96bf 1663 253f d4b6 f13e 06e1 59bf
000002a0: bb0b 3e3f 2bfd fc3e f10b 8d3f 82c6 9fbe
000002b0: c5cf cebe 5567 6ebe ea7d 25be 47e0 0e3f
000002c0: 48cd 8a3e 834f f93e d161 d93d fdc1 f83e
000002d0: 47b6 f13e 5357 54bf 4252 d23e 658f 10bf
000002e0: 7e7a 5dbe 164d 223f c1fb 43bf 11c3 063f
000002f0: 93c0 83bf 64a0 0d3f da0c e33e e552 cabe
00000300: 8b83 51bb e32c 44be b441 a53d 9cae db3d
00000310: 2052 0f3d 01f0 403d a459 6cbc 7458 243d
00000320: 26d8 c139 19a6 b9b9 d109 4abe f872 19be
00000330: 214f cabc 9099 ac3d 53e1 383c 55c9 4b3d
00000340: fd47 5bbe 6386 69be 18ca 59be 84e0 21bd
00000350: a329 193e aa92 dabd f9bc ecbd 08db 803d
00000360: 97d1 f1be e83a 853d 5019 d4bb 17ab 88bd
00000370: 7030 923c b02d 90bf f542 c9bf 0087 0fbf
00000380: f9d7 66bf 2058 db3e 780f 8bbf 959e 063f
00000390: d0ff a4be a45c 9a3f f0dc 66bd 7d8f 53bf
000003a0: 59fc 9cbe 937d 0cbf abe0 ecbc 3a02 17bf
000003b0: e2f3 a8be cb5d f8be 4f3d 9e3e 6c33 723c
000003c0: 5919 393f 19a5 083f 739c a03f 42a5 3fbe
000003d0: 615a d7be 861e debe 6810 843c 6e2a d23e
000003e0: 2643 9a3e 6a17 093f d1e6 ae3e eb37 b63e
000003f0: 1af7 bc3e 2374 54bf 88e3 0c3f 3b21 51be
-0.04847854 -0.0074334485 -0.075581565 -0.18399873 -0.08003365 0.015249957 -0.054635793 -0.13279992
0.022253409 -0.078193046 -0.030591294 0.08076659 -0.08612953 0.047028095 0.011584849 0.11297608
-0.08611928 0.13992183 0.04378272 0.038401257 -0.18522197 -0.23234113 -0.09256633 -0.064624935
0.48227873 0.46663788 1.8757637 0.19987789 -0.3822705 0.10895023 0.16549331 0.47785172
0.36265352 0.77166665 0.10942618 0.20064563 0.4576176 -0.81165105 0.40846872 -0.3515711
-0.3068894 0.589033 -0.82822114 0.46524724 -1.077355 0.6148463 0.65926963 -0.70651704
-0.15940157 0.06976394 0.052694112 -0.12835726 0.012232259 -0.19552833 0.016496688 0.1275455
0.05008596 -0.14584202 -0.17612334 -0.0046315743 -0.11311831 0.040198907 -0.0762968 -0.14467056
0.16522807 -0.201836 0.12437838 -0.08882388 0.07115677 0.018873066 -0.086084224 0.1596773
0.57302076 0.5300884 1.3417041 0.18284582 -0.38656774 0.0020215206 0.082286 0.35591
0.24434014 0.7759443 0.40520528 0.44509414 0.52214885 -0.6195937 0.32310033 -0.21702148
-0.018986704 0.59302604 -0.8366642 0.47214153 -0.9907994 0.5242464 0.35990348 -0.70673704
-0.8598706 -0.17853323 -0.7918999 0.2664687 0.67675686 0.38497305 0.27862313 -1.1324434
0.2556208 0.69665194 -2.084004 0.7791372 0.35328352 0.9244914 0.81214917 0.029244268
0.3434206 -0.25226972 -0.56473124 -0.007957461 -0.6097007 -2.3450997 0.07204821 0.312164
0.06369193 -0.047987107 0.13165237 -0.42658883 1.1921226 -0.03436591 0.023253908 -0.014448836
0.8588702 -1.4846193 0.025307763 -0.58455366 -0.059449054 -0.18278047 -0.43190297 0.32142937
0.53143156 -0.041104212 1.11027 -0.36618936 -0.26197806 0.024764126 -0.33841446 0.775845
0.40656447 0.41942823 1.4941151 0.09400386 -0.4388578 -0.30125582 -0.14721215 0.39364716
0.30733874 0.5706808 0.09106861 0.16259456 0.46815506 -0.5538086 0.7091145 -0.54630697
-0.19024858 0.46354365 -0.71176994 0.45744583 -1.1765624 0.6460432 0.472098 -0.85108984
0.7423665 0.49411902 1.1019269 -0.31206137 -0.4039289 -0.23281606 -0.16161314 0.5581097
0.27109742 0.48693475 0.1061436 0.485855 0.4720938 -0.82945746 0.41078383 -0.564688
-0.21628758 0.63398874 -0.7655602 0.526414 -1.0293144 0.5532286 0.44345742 -0.39516369
-0.0031969275 -0.19157748 0.080691725 0.107266635 0.03499043 0.047103886 -0.014425669 0.040123418
0.00036972872 -0.00035409702 -0.19730307 -0.14985263 -0.024695935 0.08427727 0.01128419 0.049752552
-0.2141418 -0.2280517 -0.21268499 -0.039520755 0.1495729 -0.10672505 -0.11559481 0.06291777
-0.47230217 0.06505376 -0.006472744 -0.06673258 0.017845362 -1.1263943 -1.5723559 -0.5606537
-0.901733 0.42840672 -1.0864096 0.52585727 -0.3222642 1.2059522 -0.056363046 -0.8264082
-0.30661276 -0.5487911 -0.028915724 -0.5898777 -0.32998568 -0.48509058 0.3090615 0.014782768
0.723043 0.5337692 1.2547745 -0.18715385 -0.4206114 -0.43382663 0.016121104 0.41047996
0.30129355 0.5355135 0.34160474 0.35589537 0.36907274 -0.8298971 0.55034685 -0.20422833

fc2.bias f4 [24]
00000000: cbf0 12be d0e0 153f 65cd 053e 1794 3a3f
00000010: 777a 9d3e 3c6f 1fbf de47 263f 0fe9 093f
00000020: 2d86 f93d aaa6 f43d 0991 3f3f 9ad3 303f
00000030: 82f8 ecbe bd75 15be eaa4 d7be 8ed5 8f3e
00000040: 6eb8 313e 738c 173f e06e 213f a955 d83d
00000050: 48b5 05be d25e 443f d1f5 053e 57a4 59be
-0.14349668 0.5854616 0.13066633 0.7288222 0.30757496 -0.62279105 0.6495341 0.53871244
0.12183795 0.11945851 0.7483068 0.6907288 -0.46283346 -0.14595695 -0.42118007 0.28092617
0.1735551 0.59198684 0.63059807 0.105632134 -0.13057435 0.76707184 0.13082053 -0.21254097

out.weight f4 [2, 24]
00000000: 374d 853d 27c7 4f3f b329 03be 6604 253f
00000010: c46d ddbe b16c 32bf c5c4 553f 4df4 2f3f
00000020: 95d3 d4bd e83c 42bf c748 013f 4ecc 143f
00000030: dc35 cabf 0178 af3c 3528 8dbf 9c5b 853e
00000040: ad84 aebf c19d 2d3f b9a0 1c3f 7078 1f3d
00000050: 30b6 23bd fcfe 163f e59c 3ebe ffdf 36bc
00000060: 56df 0fbe b934 fe3e 35de 323d 4cd2 e73e
00000070: edcd d8bf 5815 c33f 999b 1b3f d80c 353f
00000080: 8cf4 2cbc 6575 dbbf 3b27 023f e013 053f
00000090: f0d9 433f 84b5 52bd 9c4e 8b3e bc14 1fbf
000000a0: 5398 1fbf 2e2a 1c3f 6668 303f 217c a0bd
000000b0: 9ccf 45bd 76c9 e63f fa43 2cbd 43d7 323e
0.06508868 0.8116326 -0.12808876 0.64459836 -0.43247807 -0.696971 0.8350337 0.6873215
-0.103919186 -0.75874186 0.50501674 0.58124244 -1.5797687 0.021419527 -1.1027895 0.26046455
-1.363424 0.6781884 0.61182743 0.038933218 -0.03996867 0.58982825 -0.18614538 -0.011161803
-0.1405004 0.496496 0.043668944 0.4527763 -1.6937844 1.5240889 0.607843 0.70722723
-0.010556351 -1.7145201 0.5084111 0.5198345 0.7650442 -0.051442638 0.27208412 -0.62141013
-0.62341803 0.6100186 0.689093 -0.07836176 -0.048293695 1.8030231 -0.042057015 0.17464928

out.bias f4 [2]
00000000: e8aa 2f3f 0eee 933e
0.6862016 0.2889256
