src/cartpole/dqn2/res/policy_net.pt (torch_old, 4117 bytes, 6 tensors)

fc1.weight f4 [24, 4]
0	0x3f6bbde2	0.92086613
1	0x3bc22ecd	0.0059259892
2	0xc0196723	-2.39692
3	0xbf5c428b	-0.86039037
4	0xbe28570a	-0.16439453
5	0x3e450f65	0.19244154
6	0x3fda28cd	1.7043701
7	0x3f61522e	0.8801602
8	0x3f4689db	0.775541
9	0xbedf450b	-0.43607363
10	0xbf82fdaf	-1.0233668
11	0x3e7e488a	0.24832359
12	0x3e4d466e	0.20046398
13	0xbf362053	-0.7114307
14	0xbed1159b	-0.40836796
15	0x3eeee28c	0.46657217
16	0x3f175e70	0.59128475
17	0x3e0b89c9	0.1362678
18	0xbf742bad	-0.95379144
19	0xbed843c6	-0.42239207
20	0xbf46724d	-0.7751816
21	0x3f4e5dd9	0.8061195
22	0x3f51942a	0.81866705
23	0xbe28a9ea	-0.16471067
24	0xbf82298c	-1.0168929
25	0x3dcf0ce8	0.101098835
26	0x3fc6b326	1.5523422
27	0x3f62e3ee	0.88629043
28	0x3f8fd6c7	1.123742
29	0xbe1b753d	-0.15181442
30	0xbf9d34e5	-1.2281767
31	0xbf2b7d87	-0.66988415
32	0xbea923c9	-0.33035114
33	0x3e1e4869	0.1545731
34	0x3ec50ae5	0.38484874
35	0xbe53f4fd	-0.20698924
36	0x3ebda32f	0.37038562
37	0xbe705d1f	-0.23473023
38	0xbefeb86b	-0.49750075
39	0xbde21a9e	-0.11040233
40	0xbe00eb84	-0.12589842
41	0x3eca867e	0.39555734
42	0xbe717e1a	-0.2358326
43	0x3eb3421e	0.3501138
44	0x3f1afef5	0.60545284
45	0xbd169857	-0.036766376
46	0xbce21525	-0.027597973
47	0xbedd17f8	-0.4318235
48	0xbea3849a	-0.31937104
49	0xbf14b6a4	-0.5809119
50	0x3f072822	0.5279561
51	0x3ed37ee1	0.41307738
52	0xbeeb300e	-0.459351
53	0x3e03d4e5	0.12874182
54	0x3eb6cff0	0.3570552
55	0xbd6b10b9	-0.057388995
56	0xbe86192b	-0.26191077
57	0xbca99025	-0.020698616
58	0xbd943737	-0.07237094
59	0x3d4add1e	0.04952728
60	0x3e3afd82	0.18260768
61	0x3f029a07	0.5101628
62	0xbf3c405e	-0.73535717
63	0xbe8dd0e4	-0.27698433
64	0x3e919543	0.2843419
65	0xbf166042	-0.5874063
66	0xc002bd7c	-2.0428152
67	0xbf49e3a7	-0.78862995
68	0x3f3a9012	0.72876084
69	0x3e18ee13	0.14934568
70	0xc01ccda5	-2.4500515
71	0xbf2cd177	-0.6750712
72	0xbf00ce8e	-0.5031518
73	0x3efb74e2	0.49112612
74	0x3d91313d	0.070894696
75	0x3ee96653	0.4558588
76	0x3c764e0d	0.015033257
77	0xbe4bc85a	-0.19900647
78	0x3e1fb323	0.15595679
79	0xbe973094	-0.2952925
80	0x3f2d52a3	0.6770422
81	0xbe91be06	-0.2846529
82	0xbfcfc7e5	-1.6232878
83	0xbf40375a	-0.7508446
84	0x3e6f335b	0.23359434
85	0x3d1cccda	0.0382813
86	0xbee9fbff	-0.4570007
87	0xbe46b8fd	-0.19406505
88	0x3e803479	0.25040033
89	0xbe981ffe	-0.29711908
90	0xbf09946e	-0.5374211
91	0x3e782243	0.2423182
92	0x3e279ea7	0.16369115
93	0xbe8e738b	-0.27822527
94	0xbf6786c0	-0.9043999
95	0x3ec406ad	0.38286343

fc1.bias f4 [24]
0	0xbf171c66	-0.5902771
1	0xbed964e9	-0.424598
2	0x3e193660	0.14962149
3	0x3eabdccf	0.335669
4	0x3f6f6f82	0.9352952
5	0x3dff7a4a	0.12474497
6	0xbe559de0	-0.20861006
7	0x3f92d6ba	1.1471779
8	0x3efdf5c1	0.49601558
9	0x3f1f6ddc	0.6227701
10	0x3f8421e2	1.032284
11	0x3f2dec3a	0.6793858
12	0x3f950cb1	1.1644498
13	0xbeba8398	-0.36428523
14	0xbeee23b7	-0.46511623
15	0x3f8fa4f2	1.1222212
16	0xbecbe3b6	-0.39822167
17	0xbe532840	-0.20620823
18	0xbe9ed174	-0.31019175
19	0x3f67921a	0.9045731
20	0x3ed9c52d	0.42533246
21	0x3f8e3e72	1.1112807
22	0x3f36f785	0.71471435
23	0x3eada963	0.33918294

fc2.weight f4 [24, 24]
0	0xbd6d90dc	-0.057999477
1	0x3d9fbf92	0.07800211
2	0x3e29df2c	0.1658904
3	0xbda1b004	-0.078949004
4	0xbdbb781a	-0.09153767
5	0xbd8a9012	-0.067657605
6	0xbe460d46	-0.19341001
7	0xbe3c0923	-0.1836286
8	0xbdca5d55	-0.09881083
9	0x3c943358	0.018090889
10	0xbe33312a	-0.17499223
11	0xbdd552d4	-0.10416189
12	0xbd6c5975	-0.0577025
13	0x3d40b358	0.047046036
14	0xbd90ab64	-0.0706394
15	0x3d88a557	0.06672161
16	0x3cec45b8	0.028841838
17	0xbe2afdae	-0.16698334
18	0xbd91e168	-0.07123071
19	0x3d1b3e6b	0.037901323
20	0x3e475ab2	0.19468191
21	0xbc8f0c17	-0.01746182
22	0xbd5691e4	-0.052385226
23	0x3d370fe7	0.0446929
24	0xbf4db2dc	-0.8035104
25	0xbf64c496	-0.89362466
26	0x3eb261d9	0.34840277
27	0x3eb3107d	0.34973517
28	0x3f0431cb	0.5163848
29	0x3ea175b6	0.3153512
30	0xbf20abb8	-0.6276202
31	0x3f64f98e	0.8944329
32	0x3ee154b5	0.4400994
33	0x3f44bb97	0.7684874
34	0x3f1cc872	0.61243355
35	0x3f09ad83	0.5378038
36	0x3f4bb799	0.7957702
37	0xbe2d4c36	-0.16923603
38	0x3e17d2ce	0.1482651
39	0x3f47d9ea	0.78066885
40	0xbf9fcb27	-1.2483872
41	0xbf56e664	-0.839453
42	0x3e5ccdb6	0.21562847
43	0x3ed4338e	0.41445583
44	0xbf51398a	-0.8172842
45	0x3f1a126c	0.6018436
46	0x3eef243f	0.4670734
47	0x3e515ada	0.20444813
48	0xbd201178	-0.03907916
49	0xbe617d7e	-0.22020528
50	0xbcbf1212	-0.023324046
51	0xbd260676	-0.040533505
52	0xbe47d8b4	-0.1951626
53	0xbd86cc40	-0.06581926
54	0x3dd38099	0.103272624
55	0xbe36d171	-0.17853333
56	0xbe181bd5	-0.14854367
57	0xbe5a601f	-0.2132573
58	0xbd33d893	-0.043907713
59	0xbe231f99	-0.15930022
60	0x3ce88c9e	0.028387364
61	0x3da960bc	0.08270404
62	0x3e23aada	0.15983143
63	0xbcdda550	-0.027056366
64	0xbe4679e5	-0.19382437
65	0xbdb5b497	-0.088723354
66	0xbe30c79d	-0.17263646
67	0x3c187cfd	0.009307143
68	0x3ddb4e1c	0.107082576
69	0xbdf97e13	-0.1218225
70	0xbc505822	-0.012716325
71	0xbc701b54	-0.014654953
72	0xbf331ed2	-0.69968903
73	0xbf496dee	-0.78683364
74	0x3ec49c56	0.38400525
75	0x3e469038	0.19390953
76	0x3f42f974	0.76161885
77	0x3ef14dff	0.4712982
78	0xbf637932	-0.88856804
79	0x3f094315	0.53617984
80	0x3e13a5d9	0.14418735
81	0x3efd58de	0.49481863
82	0x3f2ab225	0.66678077
83	0x3dc290e1	0.0950029
84	0x3f3e52d4	0.74345136
85	0x3e006af5	0.12540801
86	0x3cf5cfda	0.030006338
87	0x3f196fe9	0.59936386
88	0xbfd1de3f	-1.6395949
89	0xbf783e57	-0.96970123
90	0x3eb96ff6	0.36218232
91	0x3f1ac92f	0.6046323
92	0xbf4ecd06	-0.8078159
93	0x3edce25a	0.43141443
94	0x3f285746	0.6575817
95	0x3d9a1a21	0.07524515
96	0xbdabf9ad	-0.08397231
97	0xbe1a2732	-0.15054014
98	0xbdb73ad5	-0.08946768
99	0x3e2016e7	0.15633737
100	0xbe053e55	-0.13012059
101	0x3de0bc4c	0.10973415
102	0xbe1e8440	-0.15480137
103	0xbd084ebf	-0.033278223
104	0xbe4e19e9	-0.20127071
105	0xbd94ad42	-0.07259609
106	0x3e310a48	0.17289078
107	0xbd69d3bc	-0.05708669
108	0x3cd52a8a	0.02602126
109	0x3da73ba0	0.081656694
110	0x3e275712	0.16341808
111	0x3cae81e9	0.02130218
112	0xbe415041	-0.1887827
113	0xbe35db8a	-0.17759529
114	0xbe05680b	-0.1302797
115	0xbe46d523	-0.19417243
116	0x3def838c	0.116950125
117	0x3e17341a	0.14765969
118	0xbd35875c	-0.044318542
119	0xbdf8db31	-0.121511824
120	0xbf620c60	-0.8830013
121	0xbf26bed3	-0.65134925
122	0x3e973de7	0.29539415
123	0x3eb57e5c	0.35447967
124	0x3f14ecc5	0.5817378
125	0x3ed1866a	0.40922862
126	0xbf4205e2	-0.75790226
127	0x3f3b9608	0.73275805
128	0x3ecfd3f8	0.40591407
129	0x3f060482	0.5235063
130	0x3f1d9f6c	0.61571383
131	0x3ef803e7	0.48440477
132	0x3f53f377	0.8279337
133	0x3cc18a61	0.023625555
134	0xbd895b8d	-0.06706915
135	0x3f12454a	0.57136977
136	0xbfaa841e	-1.3321569
137	0xbf2757c8	-0.6536832
138	0x3f06233c	0.52397513
139	0x3efa6058	0.4890163
140	0xbf240b5a	-0.6407982
141	0x3f1e7247	0.61893123
142	0x3f3ada16	0.7298902
143	0x3eef28eb	0.46710905
144	0xbe57edbb	-0.2108678
145	0xbe21ca35	-0.15799792
146	0xbdeec44d	-0.11658535
147	0xbdf69b4d	-0.1204134
148	0x3c8abf0e	0.016936805
149	0x3d7e5a0d	0.062097598
150	0x3d997e90	0.07494843
151	0xbe532644	-0.20620066
152	0x3e127628	0.14302886
153	0xbe3d2ec9	-0.18474878
154	0x3a5b2c49	0.0008360786
155	0xbdfe1aff	-0.12407493
156	0x3d0004e7	0.031254675
157	0x3e20c2d0	0.15699315
158	0x3db65584	0.089030296
159	0xbdc7227f	-0.097233765
160	0xbe03a8a1	-0.12857296
161	0x3e22b84b	0.15890615
162	0xbdbf47a9	-0.0933984
163	0x390d24df	0.00013460543
164	0x3e2e7cef	0.17039846
165	0x3d842108	0.06451613
166	0x3d691c3b	0.05691169
167	0xbd99e180	-0.07513714
168	0xbe27868a	-0.16359916
169	0x3e2fdd14	0.17174178
170	0xbd26e738	-0.04074785
171	0xbd177d84	-0.036984935
172	0xbc97f5e9	-0.018549876
173	0xbe025169	-0.12726368
174	0xbe00dd23	-0.12584357
175	0xbcd769df	-0.0262956
176	0xbe3bad32	-0.18327788
177	0xbdb9b29c	-0.0906727
178	0x3d5d49a6	0.054025315
179	0xbc2d2a86	-0.01056922
180	0xbdb47e26	-0.088131234
181	0x3e138fbe	0.14410302
182	0x3e415eda	0.18883839
183	0x3e21a162	0.15784219
184	0xbdad3693	-0.08457675
185	0x3e092b66	0.13395461
186	0x3d8b2dbc	0.067958325
187	0xbd8e6b82	-0.06954099
188	0x3de37014	0.111053616
189	0xbe4344d6	-0.19069228
190	0xbdd1eac8	-0.10249859
191	0xbdd3f5f7	-0.103496484
192	0xc008bd63	-2.1365592
193	0x3e254538	0.16139686
194	0x3ec12804	0.37725842
195	0x3e040034	0.12890702
196	0x3ec21416	0.3790595
197	0x3faea69e	1.3644598
198	0xbc909608	-0.017649665
199	0x3eafb7db	0.34319958
200	0x3ed929d7	0.42414734
201	0x3e6b2e00	0.22966766
202	0x3eca9764	0.39568627
203	0x3e8c0d2e	0.27353805
204	0x3e8ee1ef	0.2790675
205	0x3e50bb9e	0.2038407
206	0x3c9d884e	0.019230034
207	0x3ede1e24	0.4338237
208	0xbfe59e4d	-1.7938935
209	0xbfc672be	-1.5503767
210	0x3e859460	0.26089764
211	0x3ead1f6d	0.33813038
212	0xbf2a27ac	-0.66466784
213	0x3f0afae1	0.5428906
214	0x3ec673af	0.38760135
215	0x3e47e23e	0.19519898
216	0xbe18e824	-0.14932305
217	0xbd8fc5ac	-0.07020125
218	0xbe0b209b	-0.13586657
219	0x3d6fdc85	0.058559913
220	0xbe4df0e6	-0.20111427
221	0xbdea9240	-0.11453676
222	0x3e26f10c	0.1630289
223	0x3de69267	0.11258393
224	0xbe514889	-0.20437826
225	0xbe037747	-0.1283847
226	0xbc0fde6e	-0.008781059
227	0xbe1514aa	-0.14558664
228	0xbd8e3b34	-0.06944886
229	0x3e19b590	0.15010667
230	0xbd9e03f0	-0.07715595
231	0xbe699cb9	-0.22813691
232	0x3cdb3fcc	0.02676382
233	0xbe2a1b5e	-0.16612002
234	0xbe158e84	-0.14605147
235	0xbe465811	-0.19369532
236	0x3daeedc0	0.08541441
237	0x3e1de6d0	0.15420079
238	0xbe177f4f	-0.14794658
239	0xbc8cf69c	-0.017207436
240	0xbf543a5c	-0.8290155
241	0xbf1e75d0	-0.6189852
242	0x3e12974d	0.14315529
243	0x3ec38bae	0.38192505
244	0x3f683ef2	0.90721047
245	0x3e9aa138	0.30201125
246	0xbf501777	-0.81285805
247	0x3f332255	0.6997426
248	0x3edfcff9	0.43713358
249	0x3f162817	0.5865492
250	0x3eeb7aa5	0.45992008
251	0x3e83c243	0.25734147
252	0x3f3eb9eb	0.7450244
253	0xbd948c2d	-0.07253299
254	0xbdcf95d9	-0.10136003
255	0x3f416b9d	0.7555483

fc2.bias f4 [24]
0	0x3d8b056b	0.06788143
1	0x3f37dfb5	0.71825725
2	0x3e17d6a3	0.14827971
3	0x3f24bf55	0.6435445
4	0xbe2a0118	-0.1660198
5	0x3f0a302b	0.5397975
6	0xbd99a0a3	-0.07501342
7	0xbdd8ea15	-0.105915226
8	0x3ef5b7fb	0.47991928
9	0x3d439c2f	0.04775637
10	0x3f55b0ce	0.8347291
11	0xbbf62c40	-0.007512599
12	0x3f17e5b4	0.59334874
13	0xbe3f84b9	-0.18702973
14	0x3f22d708	0.6360936
15	0xbdfa201d	-0.12213156
16	0x3edc4913	0.430245
17	0x3f306941	0.68910605
18	0x3f369b79	0.7133098
19	0xbd5805a9	-0.052739773
20	0x3e62fab3	0.22165947
21	0x3ee3c935	0.44489446
22	0x3ed98846	0.4248678
23	0x3f0fc089	0.5615316

out.weight f4 [2, 24]
0	0x3d853ba8	0.06505519
1	0x3f8c36a7	1.0954179
2	0x3c50120b	0.012699614
3	0x3fc6d889	1.5534831
4	0xbd83efe2	-0.064422384
5	0x3f9948e2	1.1975367
6	0xbe211add	-0.15732904
7	0xbe11b3bc	-0.1422872
8	0x3fd62cee	1.6732461
9	0xbd28f891	-0.041252676
10	0x3f8b223c	1.0869823
11	0x3e484738	0.19558418
12	0x3f5a3a18	0.85244894
13	0x3ca31bc8	0.019910708
14	0xbf20d4ac	-0.6282451
15	0xbe090721	-0.13381626
16	0x3fc6dd8a	1.5536358
17	0x3f63134a	0.8870131
18	0x3f901400	1.1256104
19	0xbe02b620	-0.12764788
20	0x3e64543d	0.2229776
21	0x3f87d8ed	1.0613075
22	0x3f813865	1.0095335
23	0x3fb3c5fb	1.4044794
24	0xbd236475	-0.039890725
25	0x3f83e54d	1.0304352
26	0xbd9e4301	-0.07727624
27	0x3fb6ef52	1.4291785
28	0xb94739f7	-0.00018999712
29	0x3f83f9fe	1.0310667
30	0xbdbcc004	-0.092163116
31	0xbca9ce58	-0.020728275
32	0x3f299caf	0.66254705
33	0xbd80a5fb	-0.06281658
34	0x3f7c72c0	0.98612595
35	0xbc61197c	-0.013738986
36	0x3f88418d	1.0645005
37	0xbe07f7c8	-0.13278115
38	0x3fbfbddc	1.4979815
39	0xbd4bfc3b	-0.049801093
40	0xbf5d942f	-0.86554235
41	0x3f93dfd6	1.1552684
42	0x3f6d8466	0.9278015
43	0xbc689751	-0.014196233
44	0xbf16f16c	-0.5896213
45	0x3f86b54b	1.0524076
46	0x3f71df31	0.9448119
47	0x3f816ec9	1.0111934

out.bias f4 [2]
0	0x3ebc0403	0.3672181
1	0x3ed669b3	0.41877517
