src/cartpole/dqn2/res/target_net.pt (torch_old, 4117 bytes, 6 tensors)

fc1.weight f4 [24, 4]
00000000: 99a0 6c3f 6f05 293c bbf7 18c0 5b1e 5cbf
00000010: 32c2 21be 75d8 433e 362a d93f 002f 613f
00000020: 0903 463f 282f debe 8523 83bf 2879 7a3e
00000030: dc6e 593e 21ce 35bf d0d9 d1be 6dec ee3e
00000040: 3542 173f cff7 0f3e 4516 73bf 2f5f d9be
00000050: 77dc 46bf a69b 4c3f 6d12 523f 205b 22be
00000060: 2ec5 81bf 24eb c83d fa05 c63f b73d 633f
00000070: f211 903f 02ba 15be c6a7 9cbf fc36 2cbf
00000080: f0c9 aabe 4ae8 1a3e 4f02 c53e aa8c 52be
00000090: b1e6 bb3e 1d44 73be 6468 febe 61e0 dfbd
000000a0: a246 04be b421 c93e 2906 71be 5bbe b33e
000000b0: 558f 1a3f b776 14bd 6cef a3bc 080f dcbe
000000c0: 0aeb 9fbe 7a67 13bf 7330 043f 316b cf3e
000000d0: 0e30 ebbe e5d4 033e f0cf b63e b910 6bbd
000000e0: 2b19 86be 2590 a9bc 3737 94bd 1edd 4a3d
000000f0: 15ba 393e b4bc 023f 9058 3bbf c7a4 8dbe
00000100: 5d19 913e 64f4 14bf d59b 02c0 21b2 4abf
00000110: ac46 3b3f e1a6 193e 3c72 1cc0 9928 2cbf
00000120: 2dde 01bf 622e f63e d154 a13d ef94 ef3e
00000130: 4281 453c 708e 4ebe 4039 203e 90ac 96be
00000140: 1aae 2a3f bbdc 90be 1f81 cebf bbd4 3fbf
00000150: cb72 6c3e 02a1 103d 1abd e9be f268 45be
00000160: 31f3 7e3e 3937 98be 8a6f 0abf 5999 753e
00000170: 21a1 303e 074f 8cbe a3ae 69bf 58d5 c03e
0.9243255 0.010316237 -2.3901203 -0.8598382 -0.15796736 0.1912554 1.6966007 0.8796234
0.7734838 -0.43395352 -1.0245215 0.2446028 0.21233696 -0.7101765 -0.4098649 0.46664754
0.590854 0.14059375 -0.94955856 -0.42455432 -0.7768015 0.79925 0.82059366 -0.15855074
-1.01383 0.098104745 1.5470574 0.88766044 1.1255476 -0.14621738 -1.22387 -0.672714
-0.3335719 0.15127674 0.38478324 -0.20561472 0.3669944 -0.23756452 -0.4968902 -0.10931469
-0.1291757 0.39283526 -0.23537506 0.35106167 0.6037496 -0.036246028 -0.020011626 -0.42980218
-0.31234008 -0.5757977 0.5163643 0.40511468 -0.459351 0.12874182 0.3570552 -0.057388995
-0.26191077 -0.020698616 -0.07237094 0.04952728 0.18137391 0.5106919 -0.7318201 -0.27664778
0.28339663 -0.5818541 -2.0407612 -0.79178053 0.7315471 0.15005066 -2.4444723 -0.6724945
-0.5072964 0.48082262 0.078775056 0.46793315 0.012054743 -0.20171523 0.15646839 -0.2942853
0.6667191 -0.28293404 -1.6133155 -0.74933976 0.23090665 0.0353098 -0.45652086 -0.19278315
0.24897458 -0.29729632 -0.54076445 0.23984279 0.17248966 -0.27404043 -0.912821 0.37662768

fc1.bias f4 [24]
00000000: e4fc 18bf ec84 d7be 2119 1a3e 0e32 af3e
00000010: b18d 6e3f 89ec 0a3e 2972 48be ed4f 923f
00000020: f41e fe3e 60a1 1f3f 8b42 843f 565f 2e3f
00000030: 54a4 953f 9883 babe b723 eebe 2a71 8f3f
00000040: e383 cdbe 6023 65be 5344 92be 50e0 673f
00000050: 1c8b d43e 6263 8e3f 0021 373f 1069 b03e
-0.5976088 -0.420936 0.15048648 0.34217876 0.93184954 0.13566794 -0.19574799 1.1430641
0.4963299 0.62355614 1.0332807 0.6811422 1.1690774 -0.36428523 -0.46511623 1.120641
-0.40139684 -0.22376776 -0.28567752 0.9057665 0.41512382 1.1124079 0.7153473 0.34455156

fc2.weight f4 [24, 24]
00000000: dc90 6dbd 92bf 9f3d 2cdf 293e 04b0 a1bd
00000010: 1a78 bbbd 1290 8abd 460d 46be 2309 3cbe
00000020: 555d cabd 5833 943c 2a31 33be d452 d5bd
00000030: 7559 6cbd 58b3 403d 64ab 90bd 57a5 883d
00000040: b845 ec3c aefd 2abe 68e1 91bd 6b3e 1b3d
00000050: b25a 473e 170c 8fbc e491 56bd e70f 373d
00000060: d785 4fbf a4ca 63bf b07f b23e e008 b23e
00000070: e966 033f e6c3 9e3e c821 20bf f81f 643f
00000080: 1155 e03e 25d8 443f c9d2 1c3f 6100 093f
00000090: fe74 4b3f 364c 2dbe ced2 173e 6527 473f
000000a0: fc7b a0bf b21d 58bf 082b 4f3e 4128 d43e
000000b0: 7316 51bf 02e4 193f 0dd4 ef3e 7da0 503e
000000c0: 7811 20bd 7e7d 61be 1212 bfbc 7606 26bd
000000d0: b4d8 47be 40cc 86bd 9980 d33d 71d1 36be
000000e0: d51b 18be 1f60 5abe 93d8 33bd 991f 23be
000000f0: 9e8c e83c bc60 a93d daaa 233e 50a5 ddbc
00000100: e579 46be 97b4 b5bd 9dc7 30be fd7c 183c
00000110: 1c4e db3d 137e f9bd 2258 50bc 541b 70bc
00000120: a5eb 34bf 257c 48bf e5af c43e 8b6f 443e
00000130: e72b 423f 9c9a ee3e 09f6 62bf 2c67 083f
00000140: e89a 113e f985 fd3e e6b3 2a3f 6010 bd3d
00000150: 8b09 3e3f f56a 003e dacf f53c 57ba 183f
00000160: df8a d2bf 8572 79bf b87f b23e 3cbe 1a3f
00000170: 50ab 4ebf 8d7b dc3e 29a7 283f fc7a 983d
00000180: adf9 abbd 3227 1abe d53a b7bd e716 203e
00000190: 553e 05be 4cbc e03d 4084 1ebe bf4e 08bd
000001a0: e919 4ebe 42ad 94bd 480a 313e bcd3 69bd
000001b0: 8a2a d53c a03b a73d 1257 273e e981 ae3c
000001c0: 4150 41be 8adb 35be 0b68 05be 23d5 46be
000001d0: 8c83 ef3d 1a34 173e 5c87 35bd 31db f8bd
000001e0: 85c4 63bf ade3 25bf 2736 973e 4253 b43e
000001f0: c21f 143f 51d9 ce3e f295 41bf 7bbb 3a3f
00000200: 7fce ce3e 6512 063f 218f 1d3f aea3 f63e
00000210: 8998 533f 618a c13c 8d5b 89bd f38e 113f
00000220: d322 abbf 3f7e 28bf 507d 023f 373d fa3e
00000230: 36e5 23bf 4739 1e3f ec16 3b3f 1fa4 ee3e
00000240: bbed 57be 35ca 21be 4dc4 eebd 4d9b f6bd
00000250: 0ebf 8a3c 0d5a 7e3d 907e 993d 4426 53be
00000260: 2876 123e c92e 3dbe 492c 5b3a ff1a febd
00000270: e704 003d d0c2 203e 8455 b63d 7f22 c7bd
00000280: a1a8 03be 4bb8 223e a947 bfbd df24 0d39
00000290: ef7c 2e3e 0821 843d 3b1c 693d 80e1 99bd
000002a0: 8a86 27be 14dd 2f3e 38e7 26bd 847d 17bd
000002b0: e9f5 97bc 6951 02be 23dd 00be df69 d7bc
000002c0: 32ad 3bbe 9cb2 b9bd a649 5d3d 862a 2dbc
000002d0: 267e b4bd be8f 133e da5e 413e 62a1 213e
000002e0: 9336 adbd 662b 093e bc2d 8b3d 826b 8ebd
000002f0: 1470 e33d d644 43be c8ea d1bd f7f5 d3bd
00000300: 69c7 06c0 29de 243e edcd bf3e b005 ff3d
00000310: ec34 c73e e1f1 ae3f 1c52 9cbc 7f0b b53e
00000320: f03d dc3e d2ce 713e 0035 ca3e f91f 913e
00000330: c2e5 8c3e 9ebb 503e 4e88 9d3c 1788 e23e
00000340: 034d e1bf de29 c3bf e7ee 753e e006 b03e
00000350: 0454 24bf 98bb 0c3f 22ec c53e a075 443e
00000360: 24e8 18be acc5 8fbd 9b20 0bbe 85dc 6f3d
00000370: e6f0 4dbe 4092 eabd 0cf1 263e 6792 e63d
00000380: 8948 51be 4777 03be 6ede 0fbc aa14 15be
00000390: 343b 8ebd 90b5 193e f003 9ebd b99c 69be
000003a0: cc3f db3c 5e1b 2abe 848e 15be 1158 46be
000003b0: c0ed ae3d d0e6 1d3e 4f7f 17be 9cf6 8cbc
000003c0: f602 56bf 1388 1dbf 89b5 123e ff75 c23e
000003d0: 2373 673f c9f0 973e d397 4fbf 4b48 323f
000003e0: 1fce de3e f83e 163f 637a eb3e 8065 823e
000003f0: c36d 3e3f 2d8c 94bd d995 cfbd 89b7 403f
-0.057999477 0.07800211 0.1658904 -0.078949004 -0.09153767 -0.067657605 -0.19341001 -0.1836286
-0.09881083 0.018090889 -0.17499223 -0.10416189 -0.0577025 0.047046036 -0.0706394 0.06672161
0.028841838 -0.16698334 -0.07123071 0.037901323 0.19468191 -0.01746182 -0.052385226 0.0446929
-0.810636 -0.8898108 0.34863043 0.34772396 0.51328903 0.31008834 -0.62551546 0.8911128
0.438149 0.7689231 0.6125913 0.53516203 0.7947539 -0.16923603 0.1482651 0.77794486
-1.2537837 -0.8442031 0.20231259 0.4143696 -0.8167488 0.6011354 0.4684147 0.20373721
-0.03907916 -0.22020528 -0.023324046 -0.040533505 -0.1951626 -0.06581926 0.103272624 -0.17853333
-0.14854367 -0.2132573 -0.043907713 -0.15930022 0.028387364 0.08270404 0.15983143 -0.027056366
-0.19382437 -0.088723354 -0.17263646 0.009307143 0.107082576 -0.1218225 -0.012716325 -0.014654953
-0.70672065 -0.7831443 0.38415447 0.19183175 0.7584824 0.46602333 -0.8865667 0.5328243
0.14219248 0.49516276 0.66680753 0.09231639 0.7423331 0.12540801 0.030006338 0.5965933
-1.644863 -0.9744037 0.34863067 0.60446525 -0.8073015 0.43063012 0.65880066 0.074453324
-0.08397231 -0.15054014 -0.08946768 0.15633737 -0.13012059 0.10973415 -0.15480137 -0.033278223
-0.20127071 -0.07259609 0.17289078 -0.05708669 0.02602126 0.081656694 0.16341808 0.02130218
-0.1887827 -0.17759529 -0.1302797 -0.19417243 0.116950125 0.14765969 -0.044318542 -0.121511824
-0.8897174 -0.6480053 0.29533502 0.3521977 0.5786096 0.40400174 -0.75619423 0.7294232
0.4039192 0.5237182 0.6154652 0.48171753 0.82654625 0.023625555 -0.06706915 0.5685875
-1.3370003 -0.65817636 0.5097246 0.48874828 -0.64021623 0.6180615 0.7308185 0.4660959
-0.2108678 -0.15799792 -0.11658535 -0.1204134 0.016936805 0.062097598 0.07494843 -0.20620066
0.14302886 -0.18474878 0.0008360786 -0.12407493 0.031254675 0.15699315 0.089030296 -0.097233765
-0.12857296 0.15890615 -0.0933984 0.00013460543 0.17039846 0.06451613 0.05691169 -0.07513714
-0.16359916 0.17174178 -0.04074785 -0.036984935 -0.018549876 -0.12726368 -0.12584357 -0.0262956
-0.18327788 -0.0906727 0.054025315 -0.01056922 -0.088131234 0.14410302 0.18883839 0.15784219
-0.08457675 0.13395461 0.067958325 -0.06954099 0.111053616 -0.19069228 -0.10249859 -0.103496484
-2.105921 0.16100372 0.37461796 0.12452257 0.38907564 1.3667566 -0.019082122 0.35360333
0.43016005 0.23614052 0.3949356 0.28344706 0.2751904 0.2038407 0.019230034 0.44244453
-1.7601627 -1.5247152 0.24016915 0.34380245 -0.641907 0.54973745 0.38656718 0.19185495
-0.14932305 -0.07020125 -0.13586657 0.058559913 -0.20111427 -0.11453676 0.1630289 0.11258393
-0.20437826 -0.1283847 -0.008781059 -0.14558664 -0.06944886 0.15010667 -0.07715595 -0.22813691
0.02676382 -0.16612002 -0.14605147 -0.19369532 0.08541441 0.15420079 -0.14794658 -0.017207436
-0.8359827 -0.6153576 0.14327063 0.3798065 0.9041006 0.29675892 -0.8109104 0.6964156
0.43516633 0.5868983 0.4599181 0.25468063 0.74386233 -0.07253299 -0.10136003 0.7528005

fc2.bias f4 [24]
00000000: 6b05 8b3d 9ce1 373f a3d6 173e f2b9 243f
00000010: 1801 2abe 6d1d 0a3f a3a0 99bd 15ea d8bd
00000020: 758d f63e 2f9c 433d a4aa 553f 402c f6bb
00000030: 472a 183f b984 3fbe da59 253f 1d20 fabd
00000040: c9b6 da3e 8fb7 303f e67d 363f a905 58bd
00000050: d835 5e3e 00e5 e33e 538a d93e e783 0f3f
0.06788143 0.7182863 0.14827971 0.6434623 -0.1660198 0.5395115 -0.07501342 -0.105915226
0.48154798 0.04775637 0.834635 -0.007512599 0.5943951 -0.18702973 0.6459023 -0.12213156
0.4271758 0.6903009 0.71285856 -0.052739773 0.21700227 0.4451065 0.42488346 0.5606064

out.weight f4 [2, 24]
00000000: a83b 853d 522f 8b3f 0b12 503c 3691 c53f
00000010: e2ef 83bd f939 983f dd1a 21be bcb3 11be
00000020: 5a88 d33f 91f8 28bd 9c14 8a3f 3847 483e
00000030: 465e 583f c81b a33c 5490 25bf 2107 09be
00000040: e2d7 c43f 4aff 603f a519 8f3f 20b6 02be
00000050: 605b 633e 33dd 863f 5826 803f 3ba9 b23f
00000060: 7564 23bd 1ec8 843f 0143 9ebd 7b40 b83f
00000070: f739 47b9 63f5 843f 04c0 bcbd 58ce a9bc
00000080: 5c21 2b3f fba5 80bd 4b73 7e3f 7c19 61bc
00000090: 66db 883f c8f7 07be fa35 bf3f 3bfc 4bbd
000000a0: 97c6 56bf d5ac 943f 1c29 6f3f 5197 68bc
000000b0: 12ce 12bf de77 873f 37ac 733f 3883 823f
0.06505519 1.0873816 0.012699614 1.543494 -0.064422384 1.1892692 -0.15732904 -0.1422872
1.6525986 -0.041252676 1.078754 0.19558418 0.8451885 0.019910708 -0.6467335 -0.13381626
1.5378382 0.8788954 1.1179701 -0.12764788 0.22202826 1.0536255 1.0011702 1.3957895
-0.039890725 1.0373571 -0.07727624 1.4394678 -0.00018999712 1.0387386 -0.092163116 -0.020728275
0.6684778 -0.06281658 0.99394673 -0.013738986 1.0691955 -0.13278115 1.4938347 -0.049801093
-0.83896774 1.1615244 0.934221 -0.014196233 -0.5734569 1.0583456 0.95184654 1.0196295

out.bias f4 [2]
00000000: 017b b93e a016 d93e
0.36226657 0.42400074
