src/cartpole/dqn2/res/target_net.pt (torch_old, 4117 bytes, 6 tensors)

fc1.weight f4 [24, 4]
0.5486384 -0.41467398 -0.33575037 -0.56355524 0.13935779 0.11804793 -0.21382996 -0.373191
0.6542229 0.5424745 -0.20395067 0.073769815 0.57178384 -0.27558306 0.5692877 -0.12317369
-0.4694108 -0.1530027 -0.32693237 -0.14447506 -0.851174 -0.055243995 0.73083407 0.4242957
-0.3946071 -0.02455296 1.5484482 0.36220786 0.48479947 -0.32646823 -0.47671902 -0.26970977
0.1064762 -0.92566526 -0.067811966 0.4599514 0.021665918 0.23718742 1.1274319 0.3968877
0.46867734 -0.2070988 -1.5609075 -0.54175425 -0.008463455 1.1785334 0.9622713 0.46042404
-0.35379907 0.011133039 0.25128537 -0.04159179 0.7207284 0.30440864 1.363836 0.69827646
-0.4893154 0.26210386 1.0327717 0.07147249 0.38048422 -0.3436776 -2.084481 -0.7509036
-0.09241494 0.1303703 -1.9196486 -0.59975654 0.17327127 -0.36763558 -0.22861692 -0.19212185
0.31725106 -0.4611257 -2.2323043 -0.6932351 -0.07184348 -0.33791283 0.06980536 -0.0036538611
1.5175282 -0.24996096 -0.33852893 -0.31702465 0.61122376 -0.27246007 -1.3896195 -0.63396823
0.44126934 -0.17227046 0.12791693 0.2763964 -0.007978192 -0.054320455 -2.2660978 -0.4606653
00000000: 9173 0c3f 2650 d4be 79e7 abbe 2845 10bf
00000010: cfb3 0e3e 1dc3 f13d 3ef6 5abe e412 bfbe
00000020: 277b 273f 9cdf 0a3f 72d8 50be a114 973d
00000030: 6d60 123f 3919 8dbe d7bc 113f 7d42 fcbd
00000040: 9d56 f0be bdac 1cbe ae63 a7be 45f1 13be
00000050: 8ae6 59bf 8747 62bd f117 3b3f 493d d93e
00000060: f109 cabe 4a23 c9bc 8d33 c63f 4f73 b93e
00000070: a337 f83e d826 a7be 8414 f4be 6617 8abe
00000080: 3210 da3d 66f8 6cbf 00e1 8abd c07e eb3e
00000090: b97c b13c 42e1 723e b04f 903f dd34 cb3e
000000a0: 7af6 ef3e b511 54be d1cb c7bf 68b0 0abf
000000b0: 4eaa 0abc 2fda 963f 6957 763f b3bc eb3e
000000c0: 2725 b5be 5a67 363c 7aa8 803e 275c 2abd
000000d0: a881 383f 73db 9b3e 2e92 ae3f 3fc2 323f
000000e0: 8c87 fabe 7a32 863e dd31 843f 2b60 923d
000000f0: d4ce c23e 83f6 afbe 2368 05c0 383b 40bf
00000100: 0b44 bdbd cb7f 053e 0cb7 f5bf a589 19bf
00000110: 066e 313e bb3a bcbe 8e1a 6abe 97bb 44be
00000120: bb6e a23e ab18 ecbe 13de 0ec0 db77 31bf
00000130: ad22 93bd e902 adbe 1df6 8e3d 9e75 6fbb
00000140: 5d3e c23f c4f5 7fbe aa53 adbe 0e51 a2be
00000150: 2979 1c3f e37f 8bbe 0ddf b1bf be4b 22bf
00000160: 0eee e13e ab67 30be a8fc 023e d483 8d3e
00000170: f6b6 02bc 207f 5ebd bf07 11c0 52dc ebbe

fc1.bias f4 [24]
1.0696393 0.73061043 -0.73915565 -0.34185952 -0.75017637 -0.17222589 -0.4272493 0.64847136
0.07540608 0.97994167 0.76376766 0.21335267 0.9059826 -0.20543116 0.82609725 0.45058236
-0.12743255 0.9873173 -0.49705428 0.9390148 -0.0881872 0.9591616 0.83795834 -0.39305472
00000000: f1e9 883f 4909 3b3f 4e39 3dbf 3608 afbe
00000010: 8f0b 40bf fc5b 30be 6cc0 dabe 3802 263f
00000020: 816e 9a3d 75dd 7a3f 4786 433f 1f79 5a3e
00000030: 7aee 673f 8c5c 52be 1c7b 533f bbb2 e63e
00000040: ae7d 02be d4c0 7c3f e67d febe 4663 703f
00000050: 7e9b b4bd 9d8b 753f 7084 563f 783e c9be

fc2.weight f4 [24, 24]
-0.04847854 -0.0074334485 -0.075581565 -0.18399873 -0.08003365 0.015249957 -0.054635793 -0.13279992
0.022253409 -0.078193046 -0.030591294 0.08076659 -0.08612953 0.047028095 0.011584849 0.11297608
-0.08611928 0.13992183 0.04378272 0.038401257 -0.18522197 -0.23234113 -0.09256633 -0.064624935
0.47416344 0.4692723 1.8260351 0.21915622 -0.38519758 0.11200768 0.16552831 0.46855366
0.35488412 0.77294236 0.104250915 0.19426896 0.4562496 -0.81102896 0.4118383 -0.3543524
-0.30399844 0.58231235 -0.81236947 0.4590672 -1.0323706 0.6080803 0.64966714 -0.69216067
-0.15940157 0.06976394 0.052694112 -0.12835726 0.012232259 -0.19552833 0.016496688 0.1275455
0.05008596 -0.14584202 -0.17612334 -0.0046315743 -0.11311831 0.040198907 -0.0762968 -0.14467056
0.16522807 -0.201836 0.12437838 -0.08882388 0.07115677 0.018873066 -0.086084224 0.1596773
0.56462854 0.5319567 1.2976826 0.19984224 -0.3877525 0.008263484 0.084184185 0.34621316
0.24023236 0.7780632 0.39910215 0.43925023 0.5223902 -0.6156956 0.3280996 -0.22003858
-0.014067038 0.58749604 -0.82076305 0.467732 -0.94621587 0.51645064 0.35115486 -0.69202226
-0.8866335 -0.22309205 -0.87560123 0.2664687 0.6955743 0.38726178 0.27332774 -1.1705914
0.25157496 0.64269304 -2.0826266 0.74139935 0.3359125 0.86974 0.7815441 0.042137563
0.3198373 -0.26933452 -0.540822 -0.022547567 -0.6969261 -2.3606641 0.021434478 0.33229035
0.07379728 -0.028594695 0.1615775 -0.42658883 1.1663308 -0.03126491 0.023267021 -0.002422912
0.86576957 -1.4147615 0.035514798 -0.552382 -0.053568635 -0.18278047 -0.4205368 0.32044205
0.5370322 -0.035101254 1.0932226 -0.3625503 -0.2410992 0.036319107 -0.28779614 0.7658453
0.3975216 0.4205498 1.4516631 0.11036233 -0.43977737 -0.2944416 -0.14489883 0.3832605
0.3039096 0.5725454 0.08417375 0.15683949 0.46830595 -0.54906493 0.7140376 -0.54986787
-0.18507537 0.45777187 -0.6960293 0.45299688 -1.1323099 0.63742554 0.46309128 -0.8364803
0.731808 0.4922357 1.0740895 -0.302566 -0.3999632 -0.21696676 -0.1536557 0.5458872
0.27812064 0.49015546 0.09597658 0.48052582 0.4759931 -0.81702036 0.41937312 -0.56957257
-0.20640308 0.6307971 -0.75014335 0.52629715 -0.9876397 0.5410849 0.43605584 -0.38012075
-0.0031969275 -0.19157748 0.080691725 0.107266635 0.03499043 0.047103886 -0.014425669 0.040123418
0.00036972872 -0.00035409702 -0.19730307 -0.14985263 -0.024695935 0.08427727 0.01128419 0.049752552
-0.2141418 -0.2280517 -0.21268499 -0.039520755 0.1495729 -0.10672505 -0.11559481 0.06291777
-0.47073323 0.053365946 -0.049747124 0.00026034535 0.017845362 -1.0516958 -1.5026709 -0.55549395
-0.82049894 0.4219111 -1.075509 0.5046333 -0.32157087 1.1888247 -0.061726563 -0.8264082
-0.30661276 -0.54003966 -0.028915724 -0.57939154 -0.36340755 -0.4896794 0.30676645 0.014782768
0.7132141 0.5327364 1.2258455 -0.17715323 -0.41693985 -0.41853276 0.023681924 0.39904198
0.30772144 0.53920966 0.33226734 0.3507459 0.3731673 -0.81789637 0.5591593 -0.20855437
00000000: 6f91 46bd 4994 f3bb 82ca 9abd 2a6a 3cbe
00000010: afe8 a3bd f5da 793c c8c9 5fbd b4fc 07be
00000020: c84c b63c ad23 a0bd 989a fabc f468 a53d
00000030: ae64 b0bd 88a0 403d 61ce 3d3c 0160 e73d
00000040: 4e5f b0bd ab47 0f3e 8255 333d a34a 1d3d
00000050: d4aa 3dbe d5ea 6dbe 6b93 bdbd 145a 84bd
00000060: 8dc5 f23e 7544 f03e 85bb e93f 7d6a 603e
00000070: 9e38 c5be 4864 e53d 4180 293e 44e6 ef3e
00000080: 5fb3 b53e 8ddf 453f 8181 d53d 71ee 463e
00000090: 8c99 e93e 989f 4fbf 78dc d23e ae6d b5be
000000a0: afa5 9bbe 6c12 153f 72f7 4fbf db0a eb3e
000000b0: b824 84bf 27ab 1b3f 9650 263f 7131 31bf
000000c0: 2a3a 23be 66e0 8e3d c8d5 573d 1670 03be
000000d0: d069 483c 9438 48be 1024 873c 4a9b 023e
000000e0: f026 4d3d 9c57 15be ad59 34be 76c4 97bb
000000f0: 93aa e7bd 9ca7 243d 7f41 9cbd 8524 14be
00000100: 8c31 293e 19ae 4ebe 18ba fe3d 4be9 b5bd
00000110: a4ba 913d b09b 9a3c ed4c b0bd 7282 233e
00000120: 7f8b 103f 502e 083f 771a a63f 72a3 4c3e
00000130: 7f87 c6be 9063 073c c268 ac3d da42 b13e
00000140: 79ff 753e 262f 473f 1e57 cc3e 68e5 e03e
00000150: 5dbb 053f 3a9e 1dbf acfc a73e cb51 61be
00000160: 6f79 66bc 2466 163f 871d 52bf 927a ef3e
00000170: 343b 72bf 1c36 043f 92ca b33e 5f28 31bf
00000180: 6afa 62bf 3e72 64be 6727 60bf 966e 883e
00000190: 2811 323f 2d47 c63e 9df1 8b3e f0d5 95bf
000001a0: 6fce 803e 8887 243f c149 05c0 59cc 3d3f
000001b0: b9fc ab3e 48a7 5e3f 4613 483f 7098 2c3d
000001c0: b7c1 a33e 37e6 89be 5073 0abf adb5 b8bc
000001d0: c069 32bf 1f15 17c0 5c97 af3c f621 aa3e
000001e0: 0723 973d 6c3f eabc 9274 253e da69 dabe
000001f0: 544a 953f a20f 00bd 7b9a be3c b8c9 1ebb
00000200: 13a3 5d3f e816 b5bf f777 113d e868 0dbf
00000210: c96a 5bbd ce2a 3bbe 9950 d7be fb10 a43e
00000220: f17a 093f 55c6 0fbd b8ee 8b3f 31a0 b9be
00000230: b5e2 76be 58c3 143d 045a 93be 700e 443f
00000240: f387 cb3e 4e52 d73e 19d0 b93f a505 e23d
00000250: 802a e1be 0dc1 96be 5c60 14be b83a c43e
00000260: 0a9a 9b3e 5692 123f 4963 ac3d 889a 203e
00000270: ccc5 ef3e 858f 0cbf 2bcb 363f 24c4 0cbf
00000280: 6684 3dbe 1361 ea3e fa2e 32bf 35ef e73e
00000290: 88ef 90bf 522e 233f 4d1a ed3e 9323 56bf
000002a0: c557 3b3f 5106 fc3e c47b 893f eee9 9abe
000002b0: fac7 ccbe 892c 5ebe eb57 1dbe 43bf 0b3f
000002c0: d465 8e3e a8f5 fa3e 5f8f c43d 7b07 f63e
000002d0: 5eb5 f33e 3f28 51bf 13b8 d63e 82cf 11bf
000002e0: 545b 53be eb7b 213f 6509 40bf 69bb 063f
000002f0: f5d5 7cbf 8a84 0a3f b642 df3e 309f c2be
00000300: 8b83 51bb e32c 44be b441 a53d 9cae db3d
00000310: 2052 0f3d 01f0 403d a459 6cbc 7458 243d
00000320: 26d8 c139 19a6 b9b9 d109 4abe f872 19be
00000330: 214f cabc 9099 ac3d 53e1 383c 55c9 4b3d
00000340: fd47 5bbe 6386 69be 18ca 59be 84e0 21bd
00000350: a329 193e aa92 dabd f9bc ecbd 08db 803d
00000360: f203 f1be 4096 5a3d a4c3 4bbd f67e 8839
00000370: 7030 923c f89d 86bf 8557 c0bf da34 0ebf
00000380: 380c 52bf bb04 d83e 47aa 89bf a62f 013f
00000390: f0a4 a4be 682b 983f fed4 7cbd 7d8f 53bf
000003a0: 59fc 9cbe 0a40 0abf abe0 ecbc 0153 14bf
000003b0: 8e10 babe 42b7 fabe 7e10 9d3e 6c33 723c
000003c0: 3395 363f 6a61 083f 81e8 9c3f a867 35be
000003d0: 2479 d5be ed49 d6be 9800 c23c 3b4f cc3e
000003e0: aa8d 9d3e a509 0a3f f21e aa3e f794 b33e
000003f0: c90f bf3e a861 51bf 1025 0f3f 478f 55be

fc2.bias f4 [24]
-0.14349668 0.58037794 0.13066633 0.7247616 0.27661553 -0.6091053 0.6451796 0.53636837
0.12183795 0.11702519 0.74638844 0.68797326 -0.44573328 -0.14595695 -0.41753066 0.29632542
0.19162183 0.58897614 0.6288844 0.105632134 -0.13057435 0.76578784 0.13082053 -0.21254097
00000000: cbf0 12be a693 143f 65cd 053e fa89 393f
00000010: 8da0 8d3e 53ee 1bbf 7e2a 253f 704f 093f
00000020: 2d86 f93d e7aa ef3d 5013 3f3f 041f 303f
00000030: 2737 e4be bd75 15be 94c6 d5be f7b7 973e
00000040: 8338 443e 24c7 163f 91fe 203f a955 d83d
00000050: 48b5 05be ac0a 443f d1f5 053e 57a4 59be

out.weight f4 [2, 24]
0.06508868 0.79945016 -0.12808876 0.6341659 -0.4266492 -0.6384833 0.8236843 0.6767403
-0.103919186 -0.7432534 0.49657318 0.5722202 -1.5577904 0.021419527 -1.0818696 0.27602217
-1.3707002 0.6687999 0.60305864 0.038933218 -0.03996867 0.57777154 -0.18614538 -0.011161803
-0.1405004 0.5006887 0.043668944 0.45478353 -1.6605686 1.4865535 0.609418 0.70694584
-0.010556351 -1.6590872 0.5052735 0.5177814 0.76817375 -0.051442638 0.27745986 -0.6521162
-0.5743368 0.60773253 0.6875685 -0.07836176 -0.048293695 1.7855965 -0.042057015 0.17464928
00000000: 374d 853d c4a8 4c3f b329 03be b258 223f
00000010: c471 dabe a473 23bf f9dc 523f da3e 2d3f
00000020: 95d3 d4bd db45 3ebf d73e fe3e 067d 123f
00000030: ad65 c7bf 0178 af3c b47a 8abf c752 8d3e
00000040: 1b73 afbf 7836 2b3f 0d62 1a3f 7078 1f3d
00000050: 30b6 23bd d6e8 133f e59c 3ebe ffdf 36bc
00000060: 56df 0fbe 222d 003f 35de 323d 63d9 e83e
00000070: 838d d4bf 6347 be3f d102 1c3f 67fa 343f
00000080: 8cf4 2cbc f85c d4bf 9b59 013f 528d 043f
00000090: 09a7 443f 84b5 52bd 380f 8e3e 16f1 26bf
000000a0: bd07 13bf 5c94 1b3f 7d04 303f 217c a0bd
000000b0: 9ccf 45bd 6d8e e43f fa43 2cbd 43d7 323e

out.bias f4 [2]
0.6745791 0.2947381
00000000: 37b1 2c3f eae7 963e
